Gazebo/ros_ws/src/a4vai/a4vai/path_following/PathFollowing/BaseModules/output1.onnx (onnx, 73294 bytes, 6 tensors)

Net.0.weight f4 [128, 10]
0.28949887 -0.12333984 -0.67412066 0.18013257 0.07567479 0.08930866 -0.42768764 0.06866807
0.22500701 -0.120310955 0.15112498 -0.009084081 0.055592343 0.059712842 0.21460247 0.0923791
-0.4692666 0.24330924 -0.1772522 0.34473345 -0.08233879 0.015931431 -0.054865535 -0.03770928
-0.030149246 -0.025001014 0.7011938 0.19827479 0.14987941 -0.20129552 0.40200138 0.0032102375
-0.16117857 -0.07672025 -0.044963464 0.16940507 -0.55499494 -0.056226123 0.5436188 -0.20427221
0.49864388 -0.0464352 -0.112843186 0.06802565 0.34948367 -0.40452313 0.38762343 0.060143974
-0.5394388 0.47809473 0.03340538 0.022413472 -0.35565218 -0.11420305 0.3948925 0.06097581
-0.17706336 -0.14581154 0.4561788 -0.7393891 -0.14494403 -0.06871022 0.07202892 -0.19989474
0.6002295 -0.20083115 0.07698135 0.20982413 0.121708125 -0.15197636 0.3883018 0.0055285157
0.009811601 0.041436616 1.0123699 -0.06659479 -0.15918197 0.03604534 0.18771085 0.033209622
-0.17982562 0.03536849 0.03236873 -0.15434738 0.31240267 0.043578632 -0.08928726 -0.0019536202
-0.24225192 0.0097846445 -0.33039138 -0.0033602125 -0.7303025 0.025229326 -0.4950336 0.42932323
-0.1703784 -0.3776409 0.39450234 0.27196902 -0.17211983 -0.08402921 -1.4600767 0.25911674
0.22419976 -0.030980416 0.26840705 -0.1258606 0.17833519 0.021991773 0.25338367 0.16455618
0.26859355 -0.12670018 0.20164596 -0.14412902 0.2355482 -0.044857573 0.0023995223 0.09781781
0.1836004 -0.009008429 -0.22036861 0.059698943 -0.019381989 -0.29665217 -0.5015656 -0.12957667
0.45843524 0.10380178 0.080417566 0.04059002 0.74554205 0.19530687 -0.2653692 -0.048874002
-0.34912747 0.3728545 0.43430024 0.04901485 -0.049333464 0.011540969 0.06900642 0.02351201
0.36982903 0.634782 -4.7711033e-05 -0.17452239 0.065854214 -0.4014027 -0.031093108 -0.28937483
0.519045 -0.12827985 -0.32923588 -0.090812676 -0.082903534 -0.21334845 0.053715136 -0.036497813
-0.07889845 -0.009703961 -0.04187815 -0.1775601 -0.41740134 0.22489022 -0.23084728 -0.20456979
0.4760055 -0.029188855 -0.002639374 0.25099456 -0.6927245 0.03955582 -0.06933311 0.39336336
-0.48502094 0.5602347 -0.09701612 -0.2559912 -0.31470722 -0.009090761 -0.053226408 0.020002162
0.0037414813 0.29268515 0.11393042 0.4008473 -0.095502615 -0.14719903 -0.13490106 0.0025403681
-0.017681297 0.018045513 0.0899163 -0.03435923 -0.5120769 0.009217224 0.5693927 -0.10957578
0.6829596 -0.012529877 -0.0034155985 0.1264984 -0.121861 -0.013838821 0.23925935 0.08891442
-0.18966682 0.007860845 -0.054059826 -0.22286871 0.21061042 -0.006466977 -0.2963742 0.10282378
-0.0768175 0.31130865 0.44379574 -0.2872221 -0.082802355 -0.14470063 -0.15283892 -0.23704946
0.18767287 -0.06806334 -0.2736517 0.20882197 -0.09809374 -0.24355455 -0.45705616 -0.07112353
0.28007045 0.11774641 0.26936376 0.3236394 -0.4287852 -0.4293835 0.041160747 0.118505396
-0.79729897 0.09974879 -1.0247296 -0.09758292 -0.15393527 -0.39216608 -0.002212816 0.24791285
-0.1930261 -0.42778426 0.021916794 -0.0058116023 -0.018806528 1.7342163e-05 0.68110645 -0.0671386
00000000: 3239 943e 9999 fcbd 2c93 2cbf ac74 383e
00000010: 62fb 9a3d 75e7 b63d e0f9 dabe d8a1 8c3d
00000020: 3d68 663e 9765 f6bd 82c0 1a3e 66d5 14bc
00000030: ccb4 633d 7495 743d c0c0 5b3e 4131 bd3d
00000040: b643 f0be 0f26 793e 9a81 35be e780 b03e
00000050: 3da1 a8bd a282 823c afba 60bd 0c75 1abd
00000060: 8dfb f6bc edce ccbc 7081 333f 8c08 4b3e
00000070: fd79 193e 6a20 4ebe 20d3 cd3e d962 523b
00000080: ff0b 25be 821f 9dbd 9c2b 38bd 8678 2d3e
00000090: 2614 0ebf 5d4d 66bd 9a2a 0b3f bc2c 51be
000000a0: 404e ff3e d632 3ebd 541a e7bd 0851 8b3d
000000b0: 86ef b23e a81d cfbe 9476 c63e 8759 763d
000000c0: a918 0abf d5c8 f43e 14d4 083d 759c b73c
000000d0: 0b18 b6be 4ae3 e9bd 5a2f ca3e c5c1 793d
000000e0: 1950 35be 9f4f 15be 4590 e93e 9b48 3dbf
000000f0: 356c 14be f2b7 8cbd e683 933d 35b1 4cbe
00000100: a4a8 193f aea6 4dbe 66a8 9d3d 23dc 563e
00000110: 1c42 f93d b19f 1bbe 7ecf c63e 8d28 b53b
00000120: d6c0 203c 71b9 293d 5695 813f d962 88bd
00000130: 9900 23be 47a4 133d 4637 403e d006 083d
00000140: 3524 38be 8dde 103d 1395 043d 3d0d 1ebe
00000150: 3ef3 9f3e 827f 323d 3ddc b6bd 4f08 00bb
00000160: e310 78be c64f 203c 0f29 a9be 0337 5cbb
00000170: 1bf5 3abf bbad ce3c 0b75 fdbe 41d0 db3e
00000180: ad77 2ebe 265a c1be 36fc c93e 863f 8b3e
00000190: 2e40 30be 8217 acbd cbe3 babf f3aa 843e
000001a0: 9f94 653e a4ca fdbc a66c 893e 9ae1 00be
000001b0: 809d 363e 1728 b43c 81bb 813e 6a81 283e
000001c0: 1885 893e b1bd 01be 477c 4e3e 8f96 13be
000001d0: 8c33 713e 93bc 37bd 4e41 1d3b b454 c83d
000001e0: be01 3c3e 1798 13bc 4fa8 61be e186 743d
000001f0: fac6 9ebc cbe2 97be 9a66 00bf bfaf 04be
00000200: 06b8 ea3e 0796 d43d f7b1 a43d b941 263d
00000210: d8db 3e3f 86fe 473e 79de 87be 1b30 48bd
00000220: d6c0 b2be c9e6 be3e 9a5c de3e ccc3 483d
00000230: e311 4abd 5516 3d3c 3d53 8d3d 429c c03c
00000240: 3b5a bd3e 1381 223f 551d 48b8 ffb5 32be
00000250: 93de 863d a884 cdbe f9b6 febc f028 94be
00000260: 22e0 043f cb5b 03be 9b91 a8be fffb b9bd
00000270: 54c9 a9bd 0478 5abe 6704 5c3d bb7e 15bd
00000280: 8395 a1bd 5dfd 1ebc 6c88 2bbd 51d2 35be
00000290: a1b5 d5be 9f49 663e 3b63 6cbe be7a 51be
000002a0: feb6 f33e 771d efbc 59f9 2cbb 5c82 803e
000002b0: 6556 31bf 4905 223d 84fe 8dbd ec66 c93e
000002c0: aa54 f8be 8b6b 0f3f 63b0 c6bd 4711 83be
000002d0: 4e21 a1be 6af1 14bc ef03 5abd 93db a33c
000002e0: a433 753b d4da 953e 5a54 e93d db3b cd3e
000002f0: e096 c3bd 58bb 16be 8123 0abe 4e7c 263b
00000300: 5ed8 90bc 2fd4 933c 0926 b83d 44bc 0cbd
00000310: 7917 03bf d703 173c b8c3 113f 4469 e0bd
00000320: 71d6 2e3f 1d4a 4dbc 3cd8 5fbb cc88 013e
00000330: 4392 f9bd 39bc 62bc 6700 753e c318 b63d
00000340: 0538 42be c6ca 003c d66d 5dbd b237 64be
00000350: 42aa 573e efe8 d3bb 5cbe 97be 4695 d23d
00000360: 7e52 9dbd d963 9f3e 3239 e33e c60e 93be
00000370: 4894 a9bd 672c 14be ce81 1cbe 18bd 72be
00000380: 512d 403e cb64 8bbd 131c 8cbe 6dd5 553e
00000390: 5fe5 c8bd 5d66 79be 4403 eabe 37a9 91bd
000003a0: 6565 8f3e 0825 f13d 0cea 893e 10b4 a53e
000003b0: bc89 dbbe 27d8 dbbe 2c98 283d f5b2 f23d
000003c0: c91b 4cbf 1849 cc3d 572a 83bf 8ed9 c7bd
000003d0: 35a1 1dbe fec9 c8be e404 11bb dedc 7d3e
000003e0: a2a8 45be 8a06 dbbe d98a b33c 416f bebb
000003f0: 2610 9abc 037a 9137 fe5c 2e3f f67f 89bd

Net.0.bias f4 [128]
-0.10201107 0.06380957 -0.019185726 -0.02895388 -0.12514032 -0.1370117 0.21375822 -0.15317194
0.3227187 0.15991727 -0.053356823 0.0829189 -0.06270082 -0.0134621505 0.0076545333 0.22876273
0.32589072 0.039711807 0.2357273 0.12763189 -0.19143496 0.25153947 0.35404205 0.24122074
0.28357682 -0.04384645 -0.27060562 -0.08724541 0.24831009 0.16046692 -0.10338174 0.08233686
0.11461437 -0.074928135 0.11020516 -0.105748616 0.24130358 -0.3586278 0.024743319 0.19598526
0.20970698 -0.15335871 0.092744395 -0.10617642 0.055669736 0.14039856 -0.24160516 0.2395512
-0.084847495 0.0423714 0.17677122 -0.17954499 0.037150078 -0.12281928 -0.075679146 -0.09950158
-0.38253638 0.19337167 0.16663066 -0.19011943 -0.0056232116 0.20673774 0.13787974 -0.093940765
-0.06554536 -0.16143079 -0.093274824 0.27456093 0.2497686 -0.21439491 0.30388072 -0.19155295
0.08837602 0.1081086 -0.15724206 -0.00025843506 -0.08906115 -0.059628304 0.007404449 0.037441585
-0.3668906 0.02761199 0.022317588 -0.036887664 0.12502551 -0.0037623215 0.04561978 -0.12201009
0.16716424 -0.09297942 0.091609776 0.22002493 -0.04932837 0.11485028 -0.018826216 0.001750275
0.05343747 -0.14835131 0.29115897 0.3041497 -0.3535193 -0.32546306 0.14925511 -0.11546606
-0.06911107 0.15727533 0.15070528 -0.12555183 0.105888516 -0.24264447 0.009376713 0.05208907
0.10761177 -0.14702559 -0.13604492 0.09631415 -0.010568289 0.258824 -0.3856925 -0.1808924
0.0844544 0.18312559 0.0832422 0.14027695 -0.061404016 -0.3176238 0.27573735 -0.0008503296
00000000: 2eeb d0bd 98ae 823d 622b 9dbc b030 edbc
00000010: c924 00be cc4c 0cbe 6fe3 5a3e 1bd9 1cbe
00000020: 633b a53e 5ac1 233e af8c 5abd 62d1 a93d
00000030: 4a69 80bd 5a90 5cbc e1d2 fa3b c740 6a3e
00000040: 26db a63e d9a8 223d 7f62 713e efb1 023e
00000050: 8707 44be c8c9 803e 0045 b53e 9202 773e
00000060: fb30 913e 5698 33bd d28c 8abe b9ad b2bd
00000070: 0045 7e3e 7151 243e ceb9 d3bd 3aa0 a83d
00000080: f0ba ea3d ec73 99bd 3eb3 e13d bb92 d8bd
00000090: 4918 773e 109e b7be 80b2 ca3c 5cb0 483e
000000a0: 6dbd 563e 110a 1dbe c6f0 bd3d 0673 d9bd
000000b0: f305 643d a4c4 0f3e 5867 77be e94c 753e
000000c0: 86c4 adbd a28d 2d3d 8403 353e a4da 37be
000000d0: ae2a 183d ad88 fbbd abfd 9abd 7cc7 cbbd
000000e0: cfdb c3be 3903 463e 3aa1 2a3e abae 42be
000000f0: eb42 b8bb 0fb3 533e 5930 0d3e 0464 c0bd
00000100: a53c 86bd 1d4e 25be df06 bfbd 4093 8c3e
00000110: 57c3 7f3e 578a 5bbe 4196 9b3e 7526 44be
00000120: 7dfe b43d 0b68 dd3d 1004 21be 917e 87b9
00000130: b165 b6bd cf3c 74bd 05a1 f23b 595c 193d
00000140: 16d9 bbbe 8a32 e23c 60d3 b63c 8517 17bd
00000150: b006 003e 4891 76bb cedb 3a3d 6de0 f9bd
00000160: 1a2d 2b3e ff6b bebd e89d bb3d 374e 613e
00000170: 8b0c 4abd a036 eb3d 7039 9abc 7c69 e53a
00000180: 40e1 5a3d 68e9 17be ca12 953e 82b9 9b3e
00000190: 7b00 b5be 18a3 a6be 55d6 183e 7879 ecbd
000001a0: 1b8a 8dbd c90c 213e 7c52 1a3e a990 00be
000001b0: 14dc d83d cb77 78be c9a0 193c 595b 553d
000001c0: 8f63 dc3d e08d 16be 5c4f 0bbe 5a40 c53d
000001d0: 9e26 2dbc 9484 843e 7d79 c5be db3b 39be
000001e0: 6ef6 ac3d 4685 3b3e e37a aa3d c3a4 0f3e
000001f0: c782 7bbd 969f a2be 722d 8d3e a7e8 5eba

Net.2.weight f4 [128, 128]
0.027156783 -0.026834391 -0.22244908 -0.030511523 -0.34855396 0.0024443455 0.04526149 -0.1249185
-0.016482469 0.3233551 0.13040656 -0.027688643 0.020648649 -0.019129481 0.047527492 -0.034059312
0.17065428 -0.067613095 0.07032679 0.017893502 0.01605518 0.18529725 -0.03484586 0.070248894
0.32099035 -0.4823665 0.035322838 -0.57092035 0.039191794 -0.084235705 0.010115795 -0.02998124
-0.22156174 -0.1829865 0.14607832 -0.05895093 0.09584304 0.16021842 -0.007165419 0.14460334
-0.10590982 -0.019273685 -0.32164752 0.036155842 0.0700895 0.2647186 0.022237986 -0.027358675
-0.20930888 0.17760117 0.23737498 0.14943555 0.16635896 -0.25678182 -0.069555014 0.06371863
-0.42767277 -0.09758138 0.032817002 0.002125523 -0.212199 -0.21639903 0.12327422 -0.043859962
0.1821442 -0.010727227 0.047496997 -0.074468814 0.108320035 0.049323298 0.09327875 0.023052456
-0.038684566 -0.041155793 0.14878193 -0.039864335 0.31397152 -0.24288706 -0.21301997 0.22512704
0.18498558 -0.46077174 0.0165633 0.056301154 -0.012170957 0.18127257 -0.053166118 0.24057826
0.046490207 0.008682638 -0.048701786 0.026153872 0.0014484656 0.12392225 0.28611752 -0.19486189
0.06413337 -0.14905344 0.0026717626 0.06452713 -0.033906136 0.43116522 -0.49670687 0.02177444
0.051564597 -0.07020046 -0.09468396 -0.07439949 -0.3730419 -0.39139512 0.4880548 0.08367681
0.25267336 0.18313868 0.12407789 0.07742151 -0.16020037 0.19879594 -0.3663685 0.03719169
0.101928405 -0.23146327 -0.029839903 0.036315925 -0.3908424 0.023653777 -0.13647635 0.21312526
0.05476165 0.16992213 -0.015605939 0.20422019 -0.011792885 0.18573566 0.06866237 0.06275624
0.19270332 -0.30432883 -0.008038301 -0.16679883 0.037915878 -0.030015573 -0.26730552 0.15084866
-0.13184409 0.17589848 -0.15365253 0.2096901 -0.28081128 0.080486536 0.14452802 0.10964927
0.2844141 0.0910071 -0.32217094 -0.17083919 0.017612277 -0.06359369 0.058386575 0.034468446
0.14213751 0.067433394 0.085825846 0.061908837 -0.040947136 -0.041195713 -0.33802354 -0.09359644
0.004959862 0.13372755 -0.092414215 0.07314681 -0.055279523 -0.05176903 -0.022196215 0.09651406
0.023545 -0.05115718 -0.05140095 -0.066469096 -0.22090605 0.0006008271 -0.09016955 -0.06911207
0.019936267 0.023881955 -0.070191264 -0.038760714 -0.116771236 0.029973393 -0.035224035 -0.19011383
-0.039940663 -0.109168746 -0.14325666 0.33158535 -0.105604 0.24722508 -0.12646042 0.09010506
-0.01182138 -0.08023625 -0.17970274 -0.0188569 0.036575355 -0.06096644 0.09584825 -0.24777028
-0.013247655 0.03938399 0.22976783 -0.31950268 0.017573556 -0.035237484 0.18193604 -0.08763507
-0.20482491 -0.1164094 0.1294893 0.063583516 0.06080378 -0.045661997 -0.24589594 0.1489919
-0.09956133 0.22412986 -0.20302421 0.12099967 -0.6514554 0.20770082 0.29394463 -0.19517876
-0.1291085 -0.083311394 0.096822456 0.4562903 -0.03203532 -0.1958215 -0.17269146 -0.007751833
-0.01758095 -0.04661967 -0.032758903 -0.12571687 -0.10663412 -0.13480692 -0.33474737 -0.055871654
0.014652724 0.12933981 0.066725634 -0.04208672 0.38884604 0.3761822 0.04940431 0.07096601
00000000: e777 de3c ccd3 dbbc b1c9 63be 4df3 f9bc
00000010: aa75 b2be 5031 203b 1d64 393d 45d5 ffbd
00000020: 3e06 87bc cd8e a53e 4c89 053e 4bd3 e2bc
00000030: 5b27 a93c 6eb5 9cbc 30ac 423d c781 0bbd
00000040: ffbf 2e3e bc78 8abd 7e07 903d 6595 923c
00000050: 2786 833c 90be 3d3e 88ba 0ebd a7de 8f3d
00000060: d958 a43e bef8 f6be aeae 103d d627 12bf
00000070: 9387 203d c583 acbd b8bc 253c 389b f5bc
00000080: 15e1 62be d060 3bbe 8e95 153e 8876 71bd
00000090: 5b49 c43d 4c10 243e e4cb eabb e612 143e
000000a0: 3fe7 d8bd d9e3 9dbc fcae a4be 2618 143d
000000b0: 158b 8f3d 3289 873e 702c b63c 4d1f e0bc
000000c0: 1155 56be 15dd 353e 6d12 733e a205 193e
000000d0: 015a 2a3e e878 83be dc72 8ebd ea7e 823d
000000e0: edf7 dabe bfd8 c7bd 1f6b 063d 5c4c 0b3b
000000f0: b24a 59be b597 5dbe 3277 fc3d 81a6 33bd
00000100: 0284 3a3e 40c1 2fbc 368c 423d 1b83 98bd
00000110: e5d6 dd3d 3a07 4a3d ee08 bf3d 81d8 bc3c
00000120: b573 1ebd fa92 28bd 4a5a 183e c948 23bd
00000130: e0c0 a03e 63b7 78be e821 5abe b487 663e
00000140: dc6c 3d3e 46ea ebbe c2af 873c 0a9c 663d
00000150: b268 47bc 849f 393e b7c4 59bd 265a 763e
00000160: 846c 3e3d a041 0e3c 867b 47bd a540 d63c
00000170: 71da bd3a f3ca fd3d ff7d 923e e089 47be
00000180: 5b58 833d 77a1 18be bd18 2f3b cd26 843d
00000190: 29e1 0abd b0c1 dc3e 5d50 febe 4f60 b23c
000001a0: 6635 533d 42c5 8fbd aae9 c1bd c35e 98bd
000001b0: 59ff bebe f164 c8be 52e2 f93e bf5e ab3d
000001c0: 675e 813e b588 3b3e 8c1c fe3d 2b8f 9e3d
000001d0: 910b 24be 2a91 4b3e a794 bbbe 5056 183d
000001e0: d7bf d03d b504 6dbe d072 f4bc 02c0 143d
000001f0: 7f1c c8be 91c5 c13c 75c0 0bbe 823d 5a3e
00000200: c04d 603d 1100 2e3e 0db0 7fbc 191f 513e
00000210: f236 41bc 7d31 3e3e db9e 8c3d 5886 803d
00000220: 0554 453e fdd0 9bbe 14b3 03bc 50cd 2abe
00000230: ae4d 1b3d 38e3 f5bc 45dc 88be 1278 1a3e
00000240: 2302 07be bb1e 343e 1757 1dbe 00b9 563e
00000250: 7fc6 8fbe 20d6 a43d 27ff 133e cc8f e03d
00000260: ba9e 913e ee61 ba3d 97f3 a4be 78f0 2ebe
00000270: 9f47 903c 693d 82bd c326 6f3d c92e 0d3d
00000280: 7f8c 113e 851a 8a3d 76c5 af3d 1f94 7d3d
00000290: 2fb8 27bd d6bc 28bd 6c11 adbe 7eaf bfbd
000002a0: 5786 a23b e0ef 083e aa43 bdbd ffcd 953d
000002b0: c86c 62bd c30b 54bd d6d4 b5bc 2aa9 c53d
000002c0: 72e1 c03c 318a 51bd cd89 52bd f320 88bd
000002d0: 3235 62be d380 1d3a d0aa b8bd a18a 8dbd
000002e0: 6251 a33c 17a4 c33c 70c0 8fbd 8ec3 1ebd
000002f0: c225 efbd c38a f53c 1447 10bd 33ad 42be
00000300: d298 23bd dd93 dfbd e0b1 12be 8ec5 a93e
00000310: e946 d8bd 9228 7d3e d77e 01be 0089 b83d
00000320: 76ae 41bc e752 a4bd ff03 38be c979 9abc
00000330: 0ad0 153d f2b7 79bd 164c c43d 7eb7 7dbe
00000340: b10c 59bc 1b51 213d 4248 6b3e db95 a3be
00000350: 6bf6 8f3c 2e55 10bd 714d 3a3e 047a b3bd
00000360: 9fbd 51be 0d68 eebd d898 043e 1338 823d
00000370: 620d 793d 1308 3bbd 25cc 7bbe 5591 183e
00000380: d0e6 cbbd 4c82 653e 94e5 4fbe adce f73d
00000390: c8c5 26bf 86af 543e e97f 963e f1dc 47be
000003a0: 0535 04be 2a9f aabd da4a c63d e29e e93e
000003b0: 7837 03bd 6e85 48be 08d6 30be 1703 febb
000003c0: ed05 90bc 44f4 3ebd 332e 06bd ecbb 00be
000003d0: fd62 dabd d30a 0abe 0264 abbe add9 64bd
000003e0: fb11 703c a871 043e 73a7 883d 2063 2cbd
000003f0: d416 c73e f49a c03e 2c5c 4a3d a156 913d

Net.2.bias f4 [128]
-0.0024414042 0.030457618 0.07730386 0.089223154 -0.13234189 0.09035429 -0.038327474 -0.031422887
-0.03237435 0.102812834 0.023585664 0.034550074 0.025377905 0.024764393 -0.052872933 0.04686217
0.03966384 -0.049647998 0.014776543 -0.018689949 -0.03562118 -0.029985815 0.03294154 0.06262045
0.05850158 0.017679086 0.075977795 -0.016026955 -0.058908314 0.06059503 -0.08090035 0.048153814
0.038982823 0.10420324 -0.010463284 0.059350036 -0.047770087 -0.03881593 0.055071566 0.03743713
0.06836776 0.06381879 0.028097777 0.01649098 -0.034725364 -0.01728806 -0.05161142 0.046762895
0.070536934 -0.019670323 0.060523063 0.01402009 0.026119083 -0.016246011 0.10694657 -0.01182377
-0.033155613 0.098313235 0.09622988 0.039230708 -0.019638458 0.12708484 0.00050631457 -0.03337809
0.096342444 0.0114490455 -0.022056976 0.06038136 0.11874519 0.033228017 0.075789995 0.01307055
-0.06293263 0.05978259 -0.10764211 0.03441684 0.07561476 0.08215173 -0.05601041 0.098385565
0.014395337 -0.031689867 0.041913398 0.015272089 0.03597118 -0.09802154 0.030881954 0.065174334
0.03783498 0.02111942 -0.02905912 0.047529552 -0.0098165395 0.0045562256 0.094091006 0.03977199
-0.0045627663 0.07188767 0.05122399 0.026495375 0.10000768 0.015133184 -0.0037313553 -0.07796564
0.0075862715 -0.043161876 0.06903143 0.03425346 -0.08084521 0.10778643 -0.063281864 -0.014741986
-0.0427758 0.096891165 0.17431432 0.067578025 0.052296124 0.012673753 0.023857377 -0.06921945
0.023758862 0.04361323 -0.04925128 0.04012915 0.05039959 0.049337 0.006541987 0.0417218
00000000: f7ff 1fbb 4182 f93c 7c51 9e3d a1ba b63d
00000010: a284 07be ac0b b93d 45fd 1cbd 49b5 00bd
00000020: f79a 04bd 898f d23d b936 c13c 6184 0d3d
00000030: 53e5 cf3c b2de ca3c 4a91 58bd 8cf2 3f3d
00000040: 8d76 223d b35b 4bbd 5019 723c aa1b 99bc
00000050: 84e7 11bd d0a4 f5bc b5ed 063d 273f 803d
00000060: 5a9f 6f3d bbd3 903c 3f9a 9b3d f64a 83bc
00000070: d849 71bd 7f32 783d 15af a5bd ef3c 453d
00000080: 74ac 1f3d 8268 d53d 326e 2bbc 0619 733d
00000090: 91aa 43bd 74fd 1ebd b992 613d ad57 193d
000000a0: 6504 8c3d 6db3 823d 4f2d e63c 1718 873c
000000b0: 2f3c 0ebd b19f 8dbc 7f66 53bd 738a 3f3d
000000c0: ab75 903d a823 a1bc 08e7 773d 85b4 653c
000000d0: b0f7 d53c 5b16 85bc ce06 db3d 7cb8 41bc
000000e0: 2ece 07bd 7358 c93d 2c14 c53d 61b0 203d
000000f0: d5e0 a0bc 8722 023e 32ba 043a 77b7 08bd
00000100: 304f c53d c794 3b3c d5b0 b4bc 7252 773d
00000110: ae30 f33d 1a1a 083d c937 9b3d dc25 563c
00000120: d3e2 80bd 97de 743d 7773 dcbd acf8 0c3d
00000130: e9db 9a3d 2b3f a83d 2c6b 65bd 5f7e c93d
00000140: 6bda 6b3c 3ccd 01bd 62ad 2b3d c937 7a3c
00000150: 8456 133d 84bf c8bd 27fc fc3c 1f7a 853d
00000160: daf8 1a3d a202 ad3c 640d eebc 59ae 423d
00000170: 8dd5 20bc 644c 953b c9b2 c03d f4e7 223d
00000180: 4283 95bb d839 933d 3fd0 513d d40c d93c
00000190: d4d0 cc3d 2df1 773c c189 74bb 73ac 9fbd
000001a0: 4296 f83b 82ca 30bd 5a60 8d3d 5b4d 0c3d
000001b0: 2c92 a5bd 22bf dc3d ec99 81bd 5f88 71bc
000001c0: ad35 2fbd e06e c63d 747f 323e 5966 8a3d
000001d0: 7634 563d 93a5 4f3c 8c70 c33c edc2 8dbd
000001e0: f2a1 c23c c9a3 323d b6bb 49bd 775e 243d
000001f0: cd6f 4e3d 9815 4a3d 2a5e d63b 7ae4 2a3d

Net.4.weight f4 [2, 128]
-0.19926944 -0.40093058 0.08131754 -0.52195895 0.0225736 0.0123318145 0.051274534 0.05520339
-0.5125722 0.14334786 0.43488207 -0.052095186 0.035477113 -0.07709403 0.06656502 -0.5474801
0.19731423 0.02313907 -0.6030271 -0.006157467 -0.1560696 -0.3651322 -0.5291548 0.19373135
-0.17140263 -0.02662425 -0.08463585 0.16938466 0.012228387 -0.67627907 0.01621629 0.069405906
-0.46713954 0.099581264 0.05614604 -0.41700697 -0.38424766 0.037019584 0.054198608 -0.28217295
-0.5380947 0.18306164 -0.33250624 -0.4677812 -0.045726325 -0.24090688 0.424475 -3.406943
0.03998309 0.086363606 -0.022925582 0.05865359 -0.16035028 0.09602708 0.051403776 0.07413509
0.33293125 -0.27151114 -0.3152318 0.056150835 0.058869723 0.07313003 0.07834469 -0.22204404
0.06514378 -0.006358179 0.08855436 -0.38944852 0.17044859 -0.019458344 0.11669524 0.10191828
0.23132946 0.08896555 -0.03384111 0.123732835 0.02930743 0.07568553 -0.6400519 0.04636801
-0.2609707 0.07510595 -0.3211508 0.09867365 -0.5764379 -0.45347416 -0.06481446 -0.041148297
0.07782757 0.068605505 -0.0072407075 0.015173769 0.38291633 0.035826758 0.10717288 1.3134688
-0.024369955 0.085952014 0.40108788 0.07763813 0.12662071 -0.32493478 0.05721306 0.3413365
0.10890752 -0.09064919 0.31790245 0.073741615 -0.6713311 0.0594287 0.031030947 0.120521456
0.009621352 0.07720449 0.20009081 -0.21893561 0.10955302 0.12129798 -0.051216967 0.21588506
-0.20414105 0.061343003 0.21392475 -0.2817366 0.06778036 0.20150389 -0.15345542 0.06965253
0.9130376 0.4150361 -0.0016993263 0.30475518 -0.70873 0.05211296 -0.37777433 0.052632246
-0.1836967 0.26390886 -0.53633684 -0.29924104 -0.063145615 -0.4967668 0.022430407 -0.6152577
-0.010835814 -0.024751311 0.89370114 0.6920196 0.21070674 0.22744799 0.71403664 -0.75116867
0.73832995 -1.0580738 -0.4143645 0.8451821 0.004650561 0.3444809 0.0052582575 0.053185374
0.2186927 0.044794865 0.101581395 0.91740745 0.36016017 -0.03950799 0.041474838 0.07974624
0.43275234 0.11996751 -0.07268231 0.23725241 0.5240679 -0.37137058 -0.60928494 2.1220946
0.027536068 0.029479748 0.08555497 -0.06499116 -0.7525875 0.017295567 0.039398875 0.09807548
-0.6976662 0.38496083 -0.77876073 0.0626573 0.057255346 0.07259271 0.10077236 -0.15093452
0.017602727 -0.07042742 0.5647138 -0.072543606 0.008936151 0.079953074 0.04627452 0.031030469
0.51239043 0.34933186 -0.8511056 0.10522673 0.016807115 0.081221655 -0.61628664 0.08271978
-0.4519579 0.08031534 0.8888681 0.0534729 0.035528686 -0.5442007 -0.93409073 -0.5880085
-0.0003945864 0.050297562 0.8252937 0.0028608597 -1.0668116 0.07174914 0.9020793 0.5614811
-0.4226495 0.035463963 0.088444434 0.013079756 0.066679515 0.019538153 0.08133559 -1.0636584
0.016583404 -0.21541944 0.14454293 0.01259239 -1.0025824 0.038241647 0.031507462 0.08164048
0.0037360536 0.09099624 0.29090303 0.41192615 0.025821162 0.103569746 0.6430152 -0.21875028
0.83820975 0.10705838 -0.1435602 0.6047536 0.05940865 -0.4578268 -0.30764422 0.06640316
00000000: 4a0d 4cbe c646 cdbe cf89 a63d 1a9f 05bf
00000010: 45ec b83c 610b 4a3c 3f05 523d f31c 623d
00000020: ef37 03bf c8c9 123e dda8 de3e c361 55bd
00000030: 7350 113d 7ae3 9dbd 3e53 883d a827 0cbf
00000040: be0c 4a3e 268e bd3c fc5f 1abf 94c4 c9bb
00000050: b6d0 1fbe 9cf2 babe b076 07bf 8361 463e
00000060: 2c84 2fbe 191b dabc 8f55 adbd 2c73 2d3e
00000070: 9359 483c a020 2dbf 06d8 843c af24 8e3d
00000080: ea2c efbe 43f1 cb3d 64f9 653d f081 d5be
00000090: 1cbc c4be d9a1 173d 5cff 5d3d f978 90be
000000a0: 93c0 09bf 8374 3b3e 423e aabe 0481 efbe
000000b0: 874b 3bbd 4bb0 76be ca54 d93e 5b0b 5ac0
000000c0: 4fc5 233d 67df b03d 6ece bbbc bf3e 703d
000000d0: dd32 24be d9a9 c43d c48c 523d 23d4 973d
000000e0: f775 aa3e 8203 8bbe 1066 a1be 6bfe 653d
000000f0: 6121 713d 32c5 953d 2e73 a03d 835f 63be
00000100: 1a6a 853d 4558 d0bb fd5b b53d cc65 c7be
00000110: 138a 2e3e 1b67 9fbc eafd ee3d 88ba d03d
00000120: a1e1 6c3e 9233 b63d fa9c 0abd a467 fd3d
00000130: 2316 f03c 0401 9b3d 71da 23bf 62ec 3d3d
00000140: f49d 85be 26d1 993d e16d a4be 6915 ca3d
00000150: 6f91 13bf c42d e8be 72bd 84bd 1e8b 28bd
00000160: 1064 9f3d 0b81 8c3d 7543 edbb 669b 783c
00000170: 9c0d c43e 14bf 123d 747d db3d bf1f a83f
00000180: 80a3 c7bc 9c07 b03d 645b cd3e bd00 9f3d
00000190: dca8 013e da5d a6be 3e58 6a3d a8c3 ae3e
000001a0: e80a df3d 48a6 b9bd 1cc4 a23e d805 973d
000001b0: 5bdc 2bbf 826b 733d 9d34 fe3c f4d3 f63d
000001c0: e0a2 1d3c 631d 9e3d 9be4 4c3e a830 60be
000001d0: 555d e03d 136b f83d e2c8 51bd f910 5d3e
000001e0: 5a0a 51be cd42 7b3d 170f 5b3e c83f 90be
000001f0: 6ed0 8a3d 0957 4e3e 6b23 1dbe fca5 8e3d
00000200: d5bc 693f 9d7f d43e eebb deba df08 9c3e
00000210: 546f 35bf 6674 553d a36b c1be e994 573d
00000220: fd1a 3cbe 101f 873e 5f4d 09bf 1f36 99be
00000230: 7d52 81bd 3858 febe f9bf b73c 8781 1dbf
00000240: b388 31bc 43c3 cabc 99c9 643f 3228 313f
00000250: 82c3 573e 20e8 683e 1bcb 363f 974c 40bf
00000260: 3103 3d3f f66e 87bf 9527 d4be db5d 583f
00000270: bc63 983b cd5f b03e 764d ac3b e8d8 593d
00000280: fbf0 5f3e d27a 373d e809 d03d 37db 6a3f
00000290: ea66 b83e 21d3 21bd 85e1 293d ff51 a33d
000002a0: b791 dd3e 87b1 f53d 77da 94bd 4cf2 723e
000002b0: 5029 063f 4924 bebe 19fa 1bbf 66d0 0740
000002c0: 5293 e13c 837f f13c 7237 af3d 161a 85bd
000002d0: 93a9 40bf 6faf 8d3c b760 213d ccdb c83d
000002e0: 419a 32bf 9619 c53e dd5c 47bf 7852 803d
000002f0: 9584 6a3d 7dab 943d bd61 ce3d 948e 1abe
00000300: 9833 903c 403c 90bd 1591 103f be91 94bd
00000310: ef68 123c 70be a33d 5a8a 3d3d 9c33 fe3c
00000320: 052c 033f a0db b23e 0ee2 59bf 1d81 d73d
00000330: 13af 893c 8a57 a63d f6c4 1dbf fd68 a93d
00000340: 0767 e7be 5e7c a43d dc8c 633f 6606 5b3d
00000350: 8786 113d bd50 0bbf 9220 6fbf ba87 16bf
00000360: 7de0 ceb9 d104 4e3d 7346 533f 437d 3b3b
00000370: 488d 88bf 37f1 923d abee 663f 3abd 0f3f
00000380: 8465 d8be a942 113d 5b22 b53d 794c 563c
00000390: 458f 883d 7a0e a03c 4693 a63d f525 88bf
000003a0: ebd9 873c ea96 5cbe 1003 143e 5050 4e3c
000003b0: 9f54 80bf 46a3 1c3d f80d 013d 2033 a73d
000003c0: 94d8 743b 3d5c ba3d 3ef1 943e fce7 d23e
000003d0: e786 d33c 601c d43d a59c 243f 1300 60be
000003e0: ea94 563f 6d41 db3d 7201 13be 22d1 1a3f
000003f0: 7c56 733d 4668 eabe 8b83 9dbe 61fe 873d

Net.4.bias f4 [2]
-0.0014471798 0.042541467
00000000: 4caf bdba f63f 2e3d
